description=description-LAST_CLASS,train_set-2000,pre_train_epochs-10,update_lr_epoch-5,epochs-150,class_number-4 
classes=1 
run=RUN_02 
algorithm_name=SAM_ATT_MODULE 
set size: 2594, set by classes: tensor([ 100.,  190.,  682.,  603., 1523.]) 
test set size: 2000, test set by classes: tensor([  87.,  144.,  518.,  477., 1164.]) 
train set size: 594, train set by classes: tensor([ 13.,  46., 164., 126., 359.]) 
SAM(
  (basis): Sequential(
    (0): Conv2d(3, 64, kernel_size=(3, 3), stride=(1, 1), padding=(1, 1))
    (1): ReLU(inplace=True)
    (2): Conv2d(64, 64, kernel_size=(3, 3), stride=(1, 1), padding=(1, 1))
    (3): ReLU(inplace=True)
  )
  (classifier_branch): Sequential(
    (4): MaxPool2d(kernel_size=2, stride=2, padding=0, dilation=1, ceil_mode=False)
    (5): Conv2d(64, 128, kernel_size=(3, 3), stride=(1, 1), padding=(1, 1))
    (6): ReLU(inplace=True)
    (7): Conv2d(128, 128, kernel_size=(3, 3), stride=(1, 1), padding=(1, 1))
    (8): ReLU(inplace=True)
    (9): MaxPool2d(kernel_size=2, stride=2, padding=0, dilation=1, ceil_mode=False)
    (10): Conv2d(128, 256, kernel_size=(3, 3), stride=(1, 1), padding=(1, 1))
    (11): ReLU(inplace=True)
    (12): Conv2d(256, 256, kernel_size=(3, 3), stride=(1, 1), padding=(1, 1))
    (13): ReLU(inplace=True)
    (14): Conv2d(256, 256, kernel_size=(3, 3), stride=(1, 1), padding=(1, 1))
    (15): ReLU(inplace=True)
  )
  (sam_branch): Sequential(
    (0): Conv2d(64, 64, kernel_size=(3, 3), stride=(1, 1))
    (1): ReLU()
    (2): Conv2d(64, 128, kernel_size=(3, 3), stride=(1, 1))
    (3): ReLU()
    (4): MaxPool2d(kernel_size=2, stride=2, padding=0, dilation=1, ceil_mode=False)
    (5): Conv2d(128, 64, kernel_size=(3, 3), stride=(1, 1), padding=(1, 1))
    (6): ReLU()
    (7): MaxPool2d(kernel_size=2, stride=2, padding=(1, 1), dilation=1, ceil_mode=False)
    (8): Conv2d(64, 128, kernel_size=(3, 3), stride=(1, 1), padding=(1, 1))
    (9): ReLU()
    (10): Conv2d(128, 1, kernel_size=(3, 3), stride=(1, 1), padding=(1, 1))
    (11): Sigmoid()
  )
  (merged_branch): Sequential(
    (0): Conv2d(256, 256, kernel_size=(1, 1), stride=(1, 1), padding=(1, 1))
    (1): MaxPool2d(kernel_size=2, stride=2, padding=0, dilation=1, ceil_mode=False)
    (2): Conv2d(256, 512, kernel_size=(3, 3), stride=(1, 1), padding=(1, 1))
    (3): ReLU(inplace=True)
    (4): Conv2d(512, 512, kernel_size=(3, 3), stride=(1, 1), padding=(1, 1))
    (5): ReLU(inplace=True)
    (6): Conv2d(512, 512, kernel_size=(3, 3), stride=(1, 1), padding=(1, 1))
    (7): ReLU(inplace=True)
    (8): MaxPool2d(kernel_size=2, stride=2, padding=0, dilation=1, ceil_mode=False)
    (9): Conv2d(512, 512, kernel_size=(3, 3), stride=(1, 1), padding=(1, 1))
    (10): ReLU(inplace=True)
    (11): Conv2d(512, 512, kernel_size=(3, 3), stride=(1, 1), padding=(1, 1))
    (12): ReLU(inplace=True)
    (13): Conv2d(512, 512, kernel_size=(3, 3), stride=(1, 1), padding=(1, 1))
    (14): ReLU(inplace=True)
    (15): MaxPool2d(kernel_size=2, stride=2, padding=0, dilation=1, ceil_mode=False)
  )
  (avg_pool): AdaptiveAvgPool2d(output_size=(7, 7))
  (classifier): Sequential(
    (0): Linear(in_features=25088, out_features=4096, bias=True)
    (1): ReLU(inplace=True)
    (2): Dropout(p=0.5, inplace=False)
    (3): Linear(in_features=4096, out_features=4096, bias=True)
    (4): ReLU(inplace=True)
    (5): Dropout(p=0.5, inplace=False)
    (6): Linear(in_features=4096, out_features=1000, bias=True)
    (7): Linear(in_features=1000, out_features=1, bias=True)
    (8): Sigmoid()
  )
) 
PRETRAIN=1 Loss_CL=0.67459 Loss_M=0.00000 Loss_L1=0.00000 Loss_Total=1.34918 Accuracy_CL=0.58950 f_1_0=0.69468 f_1_global=0.58950 recall_0=0.80241 recall_global=0.58950 precision_0=0.61246 precision_global=0.58950  
TEST Loss_CL=0.65206 Accuracy_CL=0.61849 f_1_0=0.70404 f_1_global=0.61785 recall_0=0.75209 recall_global=0.61785 precision_0=0.66176 precision_global=0.61785  
…
